Policy based methods init/.Trash-0/files/checkpoint.pth (torch_old, 978 bytes, 3 tensors)

fc1.weight f4 [16, 2]
000000 29 e6 9a 3f 19 7c c0 3d 8a 0d 64 bd 9b b1 4a 3f
       1.2101489 0.0939867 -0.055676974 0.79177254
000010 d8 80 1e 3d b9 98 a7 be af a5 97 bd c3 c6 83 3e
       0.038697094 -0.32733706 -0.074046485 0.2573758
000020 44 20 72 bf 73 d2 c8 3e 8c e3 23 3e f5 bf a8 be
       -0.94580483 0.3922306 0.16004771 -0.32958952
000030 54 c9 31 3e 40 52 9c be 22 01 9f be 45 17 0d 3f
       0.17361957 -0.30531502 -0.31055552 0.5511363
000040 0e 97 cb bd 46 30 44 3f 98 23 9c 3f 43 04 75 3e
       -0.09940921 0.7663616 1.2198362 0.23927407
000050 3f 54 03 3e 7b 3f 8f 3f 0a f6 3f bf ac 9a 92 be
       0.12825106 1.1191248 -0.749848 -0.2863363
000060 9b 68 a5 be 56 77 dd 3e 95 0f a5 3e 68 75 ad 3e
       -0.3230637 0.4325511 0.3223845 0.33878636
000070 2d 59 b0 3e 2d 9d be 3d 59 8b 5a 3c 78 c9 82 be
       0.34443036 0.09307323 0.013338887 -0.25544333

fc1.bias f4 [16]
000000 05 5d 51 bf e4 50 dc bd 3f d1 a9 be 34 3c 48 3d
       -0.8178256 -0.10757616 -0.33167455 0.04888554
000010 ec 62 4b be ba ca 43 3f 0f 1b 01 be d8 04 8c 3f
       -0.19861954 0.7648121 -0.12607978 1.0938978
000020 e2 23 70 be bd dd 39 be ab c5 8e bf 53 f5 f9 3d
       -0.23451188 -0.18150993 -1.1154073 0.12204995
000030 71 a5 b5 3e 70 5d b9 be 9d 40 1a bf 07 c6 dc 3e
       0.35477784 -0.362041 -0.6025484 0.43119833

fc2.weight f4 [1, 16]
000000 9d 34 a6 3f 72 7a 45 be d4 7e f7 be be 5f f7 be
       1.2984806 -0.1928499 -0.4833895 -0.48315233
000010 d8 ba 03 3f 04 23 c8 be 60 2c 54 bd 71 6a 95 3e
       0.51456976 -0.39089215 -0.05180013 0.2918277
000020 c9 de b9 be 4a 9d 6e 3f 55 58 04 bf 65 9f 51 3e
       -0.36302784 0.93208754 -0.51697284 0.2047096
000030 90 aa 69 be 1b 4d ba 3f 39 c2 dd be d2 33 89 3d
       -0.2281897 1.4554781 -0.43312243 0.06699337
